Weight/Pytorch_Pretrain/Conv2D_Voice_Model_ACC87%.pt (torch, 15154 bytes, 26 tensors)

conv1.weight f4 [6, 1, 1, 80]
0	0xbe2f3fa3	-0.17114119
1	0x3f1391e1	0.5764447
2	0xbf348765	-0.70519096
3	0x3d878c42	0.06618549
4	0x3f03a4ef	0.51423544
5	0xbf4b43da	-0.7940041
6	0x3ef0799c	0.4696778
7	0x3d10ce12	0.035352774
8	0xbf34985e	-0.70544994
9	0x3cd3b8ee	0.025845017
10	0x3eada559	0.33915213
11	0xbe92e0ae	-0.28687042
12	0xbd68c4cc	-0.056828305
13	0xbd894ddf	-0.06704306
14	0x3d76c2cd	0.06024437
15	0x3eead103	0.45862588
16	0xbee03487	-0.43790075
17	0xbe9a6913	-0.3015829
18	0x3f2600f6	0.64845216
19	0xbf0130a0	-0.5046482
20	0xbe9ce639	-0.30644396
21	0x3efa5d40	0.4889927
22	0xbedb3ee4	-0.4282142
23	0x3d659e5f	0.056059238
24	0x3ea094d1	0.31363538
25	0x3da90654	0.0825316
26	0xbe89f5eb	-0.26945433
27	0x3d384d1c	0.044995412
28	0x3dde6c29	0.10860474
29	0xbc4e2c04	-0.012583736
30	0xbdbef005	-0.09323124
31	0x3dc296c6	0.09501414
32	0x3d861be4	0.065482885
33	0xbe925335	-0.28579107
34	0x3f411621	0.7542439
35	0xbeb39abf	-0.35079
36	0xbe04c0a5	-0.12964113
37	0x3f3120b5	0.6919053
38	0xbe838b12	-0.2569204
39	0x3e429bf4	0.19004804
40	0x3e47bbd3	0.19505243
41	0xbd68b9ef	-0.056817945
42	0xbb2e45af	-0.0026591828
43	0x3ccf4499	0.025301265
44	0x3d30db4d	0.04317789
45	0x3e34ceab	0.17656963
46	0x3e8c57eb	0.27410826
47	0xbeb270f8	-0.34851813
48	0x3e9eae37	0.3099229
49	0x3e942ae9	0.28938988
50	0xbf191eb2	-0.5981246
51	0x3f4e4349	0.8057142
52	0xbdf7f6a9	-0.121075936
53	0xbf019faf	-0.5063428
54	0x3f396d3e	0.72432315
55	0xbf05acee	-0.52216995
56	0x3ef7e5dd	0.4841756
57	0x3ba4fdf3	0.005035156
58	0xbeb511ee	-0.35365242
59	0x3ea8bae8	0.32955098
60	0xbed3dc41	-0.41378978
61	0x3e5fb6a1	0.21847011
62	0xbe8daa4a	-0.27668983
63	0xbec570cc	-0.3856262
64	0x3e8df729	0.2772763
65	0xbe50fa4a	-0.20407978
66	0xbe604d25	-0.21904428
67	0x3de02357	0.109442405
68	0xbe5ed178	-0.21759593
69	0xbd4bf58d	-0.049794722
70	0xbe4ca644	-0.199853
71	0x3e764910	0.24051309
72	0xbf0dc3dc	-0.5537698
73	0x3c029b62	0.007971616
74	0x3e143eec	0.14477128
75	0xbe90afa2	-0.28258997
76	0x3ed76232	0.42067105
77	0xbe951574	-0.2911793
78	0x3da415b1	0.0801195
79	0x3d723e8f	0.05914169
80	0xbd474e58	-0.0486587
81	0xbe0ef78e	-0.13961622
82	0x3e56df71	0.20983674
83	0x3e81cad0	0.25350046
84	0x3de64bce	0.11244927
85	0x3e0d1f4a	0.13781467
86	0xbf41c48d	-0.7569054
87	0xbf1bf22d	-0.60916406
88	0xbf0a3ea3	-0.54001826
89	0xbddddb15	-0.10832802
90	0x3ef54137	0.47901317
91	0xbd38821e	-0.045045964
92	0xbe0450fd	-0.1292152
93	0xbd25e69d	-0.040503133
94	0xbe4e655d	-0.20155855
95	0x3dc45806	0.09587102
96	0x3f10733f	0.5642585
97	0x3e89f45f	0.26944253
98	0x3eb7f1f2	0.35926777
99	0x3e936e4d	0.2879509
100	0x3e44a4a2	0.19203427
101	0x3ec2bba6	0.3803379
102	0xbc803662	-0.015650932
103	0xbe627cde	-0.22117946
104	0xbdb7a683	-0.089673065
105	0x3dd51607	0.10404592
106	0xbe8b1b3b	-0.27169213
107	0xbe54b77b	-0.20773117
108	0x3ece0539	0.4023836
109	0x3f615bf7	0.8803095
110	0x3f57a07d	0.8422926
111	0x3ea17198	0.31531978
112	0x3ead690a	0.338692
113	0xbd750904	-0.05982305
114	0xbc5d4150	-0.013504341
115	0xbe34fdac	-0.17674893
116	0xbeaf9caa	-0.34299213
117	0xbe392d3b	-0.1808366
118	0x3e196494	0.14979774
119	0x3e849559	0.25895193
120	0xbd115cf3	-0.035489034
121	0x3ed148d1	0.40875867
122	0x3ee0319a	0.43787843
123	0xbd9463de	-0.07245611
124	0xbde3f745	-0.11131147
125	0xbea4ae9a	-0.3216446
126	0xbebe420c	-0.37159765
127	0xbbb01bed	-0.0053744228
128	0xbe4b88c0	-0.19876385
129	0xbb9ac8a7	-0.0047236267
130	0x3e902f33	0.2816101
131	0xbe96b89c	-0.2943772
132	0x3dff14ef	0.12455165
133	0x3e334c3d	0.17509551
134	0xbeb991e1	-0.3624411
135	0x3ec83988	0.39106393
136	0x3dcd9cc8	0.10039669
137	0x3ee0f471	0.43936494
138	0x3f4105a7	0.7539925
139	0x3f0ca38a	0.5493704
140	0x3e6c9032	0.23101881
141	0x3d8aeab3	0.067830466
142	0xbef3cc12	-0.4761663
143	0xbeef22ab	-0.46706137
144	0x3e211a5b	0.1573271
145	0xbe87c3d6	-0.26516598
146	0xbd80cacf	-0.06288683
147	0x3e7fd846	0.24984846
148	0x3e79543b	0.24348538
149	0x3e42b12d	0.190129
150	0xbe9b6e49	-0.30357578
151	0x3d80e958	0.06294507
152	0xbca094b1	-0.019602152
153	0xbeb33de8	-0.35008168
154	0xbd2eca37	-0.042673316
155	0x3e7d6518	0.24745595
156	0xbeae43c7	-0.34036085
157	0xbead844e	-0.33890003
158	0x3eb3f831	0.35150293
159	0x3f8d5de5	1.1044279
160	0x3cf8e938	0.030384645
161	0xbd494832	-0.049141116
162	0xbdc9ad3e	-0.098474964
163	0x3d342273	0.043978166
164	0x3ea901e4	0.33009255
165	0x3d104313	0.035220217
166	0xbe04bd13	-0.12962751
167	0xbed4454d	-0.41459122
168	0xbeb104f6	-0.34574097
169	0x3c5c7090	0.013454571
170	0x3ede424b	0.43409953
171	0x3f5bedb7	0.859096
172	0x3ea20596	0.31644887
173	0xbe6e912f	-0.2329757
174	0xbf368987	-0.713036
175	0xbf4d45f6	-0.80184877
176	0xbea863bc	-0.3288859
177	0x3e908ea8	0.28233838
178	0x3f2aa98c	0.6666496
179	0x3ee9ab30	0.45638418
180	0x3d8c4c44	0.06850484
181	0xbd1e05c2	-0.03857971
182	0x3d6ba83e	0.057533495
183	0x3bda5b58	0.006663721
184	0xbe1a43ab	-0.15064876
185	0xbeaa8c40	-0.33310127
186	0xbef88b1e	-0.48543638
187	0xbefd6003	-0.49487314
188	0x3db483f5	0.08814231
189	0x3f348170	0.70510006
190	0x3f414b64	0.7550566
191	0x3f09a9fa	0.5377499
192	0x3ca80b85	0.020513305
193	0xbedc39af	-0.4301276
194	0xbf3a73a7	-0.7283272
195	0xbf658bcf	-0.89666456
196	0xbe9f80dc	-0.31153
197	0x3e805d70	0.25071287
198	0x3f1ac1b8	0.6045184
199	0x3f7c5662	0.9856931
200	0x3f24bc89	0.6435018
201	0x3e0a1dfe	0.13488004
202	0xbf073c2a	-0.5282618
203	0xbf503b36	-0.8134035
204	0xbf6e7f7a	-0.93163264
205	0xbea6a678	-0.3254888
206	0x3e99b754	0.3002268
207	0x3ed2a334	0.4114014
208	0x3f3098f5	0.68983394
209	0x3f1c1105	0.6096347
210	0x3e31a912	0.17349651
211	0x3d06fe7b	0.032957535
212	0xbe50a15e	-0.20374057
213	0xbf160cae	-0.586131
214	0xbf40a580	-0.7525253
215	0xbf027e94	-0.5097439
216	0xbd726867	-0.059181597
217	0x3ec79d45	0.38987175
218	0x3f2b57f5	0.66931087
219	0x3f252dd4	0.64523053
220	0x3ed27c08	0.41110253
221	0x3d85c430	0.065315604
222	0xbed110e8	-0.4083321
223	0xbec1d6b8	-0.3785913
224	0xbf059215	-0.5217603
225	0xbefed618	-0.49772716
226	0xbc598074	-0.0132752545
227	0x3eeb0d66	0.4590866
228	0x3eb0717b	0.3446158
229	0x3e86187f	0.26190564
230	0x3ddbc554	0.10730997
231	0xbe61ac45	-0.22038372
232	0xbe1bdd18	-0.1522106
233	0x3d8025bb	0.062571965
234	0xbbb6601e	-0.0055656573
235	0x3d46482f	0.048408683
236	0xbc138559	-0.0090039605
237	0xbe0cb6af	-0.13741563
238	0xbe769c5a	-0.24083081
239	0x3e987f65	0.29784694
240	0x3e1b1568	0.15144885
241	0x3e0832b1	0.13300587
242	0x3df37978	0.11888403
243	0x3dcc81c7	0.099856906
244	0x3e1d8fcc	0.15386885
245	0x3dd471f8	0.103733
246	0x3e2aca19	0.16678657
247	0x3d7df531	0.06200141
248	0x3d350127	0.044190552
249	0xbc81aff3	-0.01583097
250	0xbdc01f69	-0.09380991
251	0xbe5e67aa	-0.21719232
252	0xbed1d458	-0.40982318
253	0xbed5f35b	-0.41787228
254	0xbead3b1f	-0.33834168
255	0xbe9100b3	-0.28320846

conv1.bias f4 [6]
0	0xba1b0033	-0.00059128104
1	0xb74d987a	-1.2254453e-05
2	0xb806c71f	-3.2133536e-05
3	0xb8ec5f46	-0.00011271103
4	0x39039cba	0.00012551519
5	0xb9277c0a	-0.00015972569

bn1.weight f4 [6]
0	0x3f64fbfd	0.89447004
1	0x3f3ad658	0.7298331
2	0x3f92b88e	1.1462572
3	0x3f7aa378	0.97905684
4	0x3f826a3b	1.0188669
5	0x3f7daa36	0.99087846

bn1.bias f4 [6]
0	0x3d90fdc7	0.07079654
1	0xbfbdf78c	-1.484117
2	0x3c336800	0.0109500885
3	0x3e1dec92	0.15422276
4	0x3a36dab1	0.00069753366
5	0x3ec13a51	0.37739804

bn1.running_mean f4 [6]
0	0xb9c44599	-0.00037435887
1	0xbaeb371a	-0.0017945499
2	0xb7d68cd0	-2.5576359e-05
3	0x393502c3	0.00017262534
4	0x38d1e19d	0.0001000792
5	0xb9df97f0	-0.00042647077

bn1.running_var f4 [6]
0	0x3cb181e8	0.02166839
1	0x3dd150f2	0.10220517
2	0x3d98d59a	0.07462616
3	0x3ecc9c21	0.39962867
4	0x3db84d07	0.08999067
5	0x3e97e621	0.29667762

conv2.weight f4 [6, 6, 1, 3]
0	0xbf3aaa90	-0.7291651
1	0xbf501dad	-0.8129528
2	0xbf278593	-0.65438193
3	0xbde86c99	-0.11348838
4	0x3e117705	0.14205559
5	0x3e42363b	0.18966
6	0x3c3c9baf	0.011511727
7	0x3e32d45f	0.17463826
8	0x3d4ffa8b	0.050776046
9	0x3e2aa19d	0.16663213
10	0x3e601001	0.21881105
11	0x3e7796ee	0.24178669
12	0xbe01962f	-0.12654947
13	0xbe109bf0	-0.14121985
14	0xbd35c8b7	-0.04438087
15	0xbe9d6736	-0.30742806
16	0xbf1b6efd	-0.6071623
17	0xbf03e15d	-0.5151575
18	0xbec5f205	-0.3866121
19	0xbe6be105	-0.23035057
20	0xbecc10c1	-0.39856532
21	0x3c987316	0.018609565
22	0x3e037440	0.12837315
23	0x3ebfeba4	0.37484467
24	0x3f265514	0.6497357
25	0x3f338cb9	0.701366
26	0x3e835cd5	0.25656763
27	0x3d4aed57	0.04954275
28	0x3ecceede	0.4002599
29	0x3ebd29b1	0.3694587
30	0x3e7e2fe0	0.2482295
31	0x3ebac208	0.3647616
32	0x3dfb88d8	0.1228196
33	0x3f0539c4	0.5204127
34	0x3ed66795	0.41875902
35	0xbe16acbf	-0.14714335
36	0xbe26a755	-0.1627477
37	0xbd6b1c6b	-0.05740015
38	0xbde29e27	-0.110653214
39	0xbeb595f8	-0.3546598
40	0xbec4cb98	-0.3843658
41	0xbe41e3c4	-0.18934542
42	0xbf0bd4a3	-0.5462133
43	0xbf429cab	-0.76020306
44	0xbec78e4a	-0.38975745
45	0x3e2c32e8	0.16816294
46	0x3f1fbd52	0.62398255
47	0x3e71cca8	0.23613226
48	0x3ec42692	0.38310677
49	0x3fa36e1f	1.2767981
50	0x3ee56776	0.44805497
51	0x3d7a898f	0.061166342
52	0xbb76aee4	-0.0037640864
53	0x3be46088	0.0069695152
54	0xbe495cc5	-0.19664295
55	0xbd73bef5	-0.059508283
56	0xbdb7755e	-0.08957933
57	0xbf8a71da	-1.0815995
58	0xbe6fd63e	-0.2342157
59	0xbeee6333	-0.46560058
60	0x3f046ae6	0.51725614
61	0x3f2e4fe5	0.6809066
62	0x3f02e632	0.511325
63	0x3f005fd8	0.50146246
64	0x3efb0a54	0.49031317
65	0x3ecf8fcd	0.405394
66	0x3e143c76	0.14476189
67	0x3e9eae98	0.3099258
68	0x3ceb42b2	0.028718326
69	0xbe773954	-0.24142963
70	0xbd069217	-0.032854166
71	0xbd888034	-0.06665078
72	0x3e644afc	0.2229423
73	0x3f355685	0.70835143
74	0x3f72df73	0.94872206
75	0xbe0edb7e	-0.13950917
76	0xbf032afc	-0.51237464
77	0x3e46f590	0.19429612
78	0x3d561975	0.05227037
79	0x3c9083f3	0.017641043
80	0x3e902864	0.28155816
81	0x3e29b96e	0.16574642
82	0x3d3112fc	0.043230996
83	0xbde8ce14	-0.11367431
84	0x3dd126de	0.102124915
85	0x3e80ac37	0.2513139
86	0x3d89826f	0.06714331
87	0x3f209d8b	0.6274039
88	0xbe5bde6b	-0.21471564
89	0x3e4bb51a	0.19893304
90	0xbe267e0a	-0.16259018
91	0xbe0eee5d	-0.13958116
92	0xbe0d14ee	-0.13777515
93	0xbeb551e1	-0.3541403
94	0xbf826f7c	-1.0190272
95	0xbf0bc5a9	-0.5459848
96	0x3cc86878	0.024463877
97	0x3c3200e3	0.010864469
98	0xbd988265	-0.07446746
99	0x3e6f71a2	0.23383191
100	0x3edb099a	0.42780763
101	0x3ece5c82	0.40304953
102	0xbd611483	-0.054951202
103	0xbe56a95e	-0.20963046
104	0xbed70367	-0.41994783
105	0x3e8a716a	0.27039653
106	0x3fa879fe	1.3162229
107	0x3e82bae4	0.2553321

conv2.bias f4 [6]
0	0xb7ac3df5	-2.0532849e-05
1	0x355cc041	8.223615e-07
2	0xb6b41245	-5.366545e-06
3	0x389ff8f3	7.628081e-05
4	0x3717106f	9.004128e-06
5	0x388bbe4f	6.663484e-05

bn2.weight f4 [6]
0	0x3fe85012	1.8149436
1	0x3f4a07fd	0.7891844
2	0x3f7025d5	0.9380773
3	0x3f89416b	1.0723089
4	0x3f1c42c1	0.6103936
5	0x3f6ee3ed	0.9331654

bn2.bias f4 [6]
0	0xbe98a81e	-0.29815763
1	0x3d0068ad	0.031349827
2	0x3f003799	0.50084835
3	0x3ec84fc2	0.3912335
4	0x3eaaec26	0.33383292
5	0x3edc8b3d	0.4307498

bn2.running_mean f4 [6]
0	0xc002158f	-2.0325658
1	0x3fc77205	1.5581671
2	0x3eeeeea5	0.46666446
3	0x3f85f84c	1.0466399
4	0x3fed6393	1.8546013
5	0x3fb9e702	1.4523623

bn2.running_var f4 [6]
0	0x410f9aee	8.975325
1	0x41460064	12.375095
2	0x4099b1a2	4.8029337
3	0x410e1d31	8.882127
4	0x410513f9	8.317376
5	0x405b66ca	3.4281487

conv3.weight f4 [12, 6, 1, 3]
0	0x3e4e62a4	0.20154816
1	0x3f0d7a8a	0.55265105
2	0x3f0645be	0.5245017
3	0xbe2cce0a	-0.16875473
4	0xbecef572	-0.40421635
5	0xbe5900ac	-0.21191663
6	0xbf399603	-0.72494525
7	0xbd3c7ae1	-0.046015624
8	0x3e956bbd	0.2918376
9	0xbf2bb3cf	-0.6707124
10	0xbe721f3e	-0.2364473
11	0x3ea92bde	0.3304128
12	0x3f190c37	0.59784263
13	0xbeb1c4c7	-0.34720442
14	0xbead1163	-0.33802328
15	0x3e5e8995	0.21732171
16	0xbe93d16d	-0.28870717
17	0xbeadfb98	-0.33981013
18	0xbe558c00	-0.20854187
19	0xbdde3f68	-0.108519375
20	0xbec59e6f	-0.38597438
21	0xbdd58ac5	-0.10426859
22	0xbec1dbfd	-0.3786315
23	0xbdbaaf83	-0.091155075
24	0x3ec4794b	0.3837379
25	0x3e8ea9f4	0.2786404
26	0xbe8a8bc6	-0.27059764
27	0xbe2ed149	-0.17072023
28	0xbe5c1f19	-0.21496238
29	0xbfa42dce	-1.2826478
30	0x3ec0eaa6	0.37679023
31	0xbe19b248	-0.15009415
32	0xbea1f0ed	-0.31629124
33	0x3ed58476	0.41702622
34	0x3bcb6daf	0.0062081437
35	0xbd6d995f	-0.058007594
36	0xbf25e587	-0.64803356
37	0xbf1dca42	-0.61636746
38	0xbf6b1081	-0.9182206
39	0x3bb3c900	0.0054866076
40	0xbef5d422	-0.48013407
41	0xbe25cf69	-0.16192402
42	0xbf1d8bdb	-0.6154153
43	0x3dc53986	0.09630112
44	0x3e820590	0.2539487
45	0xbe2b27bb	-0.16714375
46	0xbf36f2c6	-0.7146419
47	0xbe5bf696	-0.21480784
48	0xbd9642b3	-0.073369406
49	0xbd528483	-0.051395904
50	0xbe094996	-0.13406977
51	0x3e3dbd05	0.18529136
52	0x3e0dbbb8	0.1384114
53	0x3e4d75a2	0.20064405
54	0x3f0640a4	0.52442384
55	0x3e51b0dc	0.20477623
56	0xbed3cb72	-0.41366154
57	0xbf0f0df3	-0.5588066
58	0xbeeef857	-0.46673843
59	0x3ed61dd7	0.4181964
60	0xbd4257cf	-0.047447022
61	0x3eeef5cf	0.46671912
62	0x3f2ae78e	0.66759574
63	0xbf82134a	-1.0162137
64	0xbe256540	-0.16151905
65	0x3ef88303	0.48537454
66	0x3d135d26	0.035977505
67	0xbd5366e4	-0.051611796
68	0x3d4990fe	0.04921054
69	0x3d16b3d6	0.0367926
70	0xbe286d04	-0.16447836
71	0x3e0d370e	0.13790533
72	0xbe904922	-0.28180796
73	0xbe4f0dd2	-0.20220116
74	0xbe71a1ef	-0.23596929
75	0xbb1c472d	-0.0023846135
76	0xbf0fbdc3	-0.5614893
77	0xbf1c92f0	-0.6116171
78	0x3f23054f	0.63679975
79	0x3ef526be	0.4788112
80	0x3ebcf373	0.36904487
81	0xbed069c8	-0.40705705
82	0xbf0654a7	-0.5247292
83	0xbf474e70	-0.7785406
84	0x3dba7323	0.09103992
85	0xbeba1965	-0.363475
86	0xbe9f5075	-0.3111607
87	0xbc32d808	-0.010915764
88	0x3e0588a1	0.13040401
89	0x3f32ca05	0.6983951
90	0xbf13cf8c	-0.57738566
91	0xbcbaf40f	-0.022821454
92	0x3f44cb2d	0.7687252
93	0xbdd797e3	-0.10527017
94	0xbedaf0e7	-0.4276192
95	0xbe8b33ff	-0.27188107
96	0x3df4fc84	0.11962226
97	0xbdaf4ec3	-0.085599445
98	0xbe784e2e	-0.24248573
99	0x3ea69e8d	0.3254284
100	0x3d9fffc0	0.07812452
101	0x3c502bac	0.012705725
102	0x3ed9e75f	0.42559335
103	0x3dce3ed9	0.10070581
104	0xbf7e4ef5	-0.9933923
105	0x3ec3949e	0.38199323
106	0xbce01fc5	-0.027358899
107	0xbed36b96	-0.4129302
108	0xbe10ab97	-0.14127956
109	0xbe356a7e	-0.17716405
110	0xbf4b845c	-0.7949884
111	0xbe918e0b	-0.28428683
112	0xbf1d0c0a	-0.61346495
113	0xbe91bdff	-0.28465268
114	0x3e6c1a9d	0.23057027
115	0xbe388f49	-0.18023409
116	0xbe29ca61	-0.16581108
117	0x3ed808da	0.42194253
118	0xbdd00622	-0.1015742
119	0x3e764241	0.24048711
120	0x3c56d99f	0.013113408
121	0x3dce1714	0.100629956
122	0xbdf184c6	-0.11792903
123	0xbd35e1e3	-0.044404875
124	0xbf2a5af6	-0.66545045
125	0xbf8f285e	-1.1184194
126	0xbe9c9c0f	-0.30587813
127	0xbf2caf06	-0.67454565
128	0xbfd94566	-1.6974304
129	0xbeaa6057	-0.33276626
130	0xbf13d77a	-0.57750666
131	0xbee66588	-0.44999337
132	0x3e000f3f	0.12505816
133	0xbca74358	-0.020417854
134	0x3edc6288	0.43043923
135	0x3eabf1ca	0.33582908
136	0xbdf7fe2a	-0.12109025
137	0xbe10eef8	-0.1415366
138	0x3e64ac94	0.22331458
139	0x3bd1e4a0	0.006405428
140	0x3e916bf1	0.28402665
141	0x3d759505	0.05995657
142	0x3d04db6e	0.032435827
143	0xbe4fb06f	-0.20282148
144	0x3d5b83ee	0.053592615
145	0x3e4913db	0.1963648
146	0xbf5c00d4	-0.85938764
147	0x3d5efbf2	0.054439493
148	0xbeea8d64	-0.45810997
149	0xbeb10775	-0.34576002
150	0xbcccf34c	-0.025018357
151	0xbf39887a	-0.7247387
152	0xbf2afcee	-0.6679219
153	0x3f072a0c	0.52798533
154	0x3d37343e	0.044727556
155	0xbe4057fb	-0.18783562
156	0xbe1dbf07	-0.15404902
157	0xbeb264c8	-0.34842515
158	0xbeb39589	-0.35075024
159	0xbcfae400	-0.030626297
160	0x3ea34008	0.3188479
161	0x3f3848d7	0.71986145
162	0x3ef89bb6	0.48556298
163	0x3f0346a2	0.5127965
164	0xbf536233	-0.82571715
165	0xbed97c61	-0.42477706
166	0xbe2c0bbf	-0.16801356
167	0xbd046120	-0.032319188
168	0xbaa25c7b	-0.001238718
169	0x3c23f954	0.010008175
170	0x3d82f574	0.06394473
171	0x3d33bc82	0.043880947
172	0xbd861c57	-0.06548374
173	0x3e6aac78	0.22917354
174	0xbf26bc8b	-0.65131444
175	0xbe0e2191	-0.13879992
176	0x3e6b922f	0.23004983
177	0xbf9f9fea	-1.2470677
178	0x3df38e10	0.11892331
179	0x3ebd5adb	0.3698338
180	0xbe2290a2	-0.15875486
181	0xbd6b733e	-0.05748295
182	0x3e04768f	0.12935852
183	0xbed5d1e5	-0.417617
184	0xbec34688	-0.3813975
185	0xbf015ca8	-0.5053201
186	0x3f27e415	0.655824
187	0x3e9fd5ef	0.31217906
188	0xbea57087	-0.32312414
189	0x3e636497	0.2220634
190	0x3ece6a15	0.4031531
191	0x3effcfdb	0.4996327
192	0xbec0a8c4	-0.37628758
193	0xbeb4458b	-0.35209307
194	0xbe222069	-0.15832676
195	0x3da44a80	0.08022022
196	0xbe89b476	-0.26895493
197	0xbed7c3bc	-0.4214152
198	0xbe871e7b	-0.26390442
199	0xbe0a7748	-0.13522065
200	0xbebfe81d	-0.37481776
201	0xbe916c0f	-0.28402755
202	0x3d9a25f6	0.07526772
203	0xbe27b37f	-0.16377066
204	0xbefb803f	-0.49121282
205	0xbe5de2cc	-0.21668547
206	0xbf1d8c7a	-0.61542475
207	0xbf79441a	-0.9736954
208	0xbec3029c	-0.38087928
209	0x3dbc8c9a	0.09206505
210	0x3d11aef9	0.035567258
211	0x3e447df5	0.19188674
212	0x3e14707e	0.14496037
213	0xbec29987	-0.38007757
214	0xbe2fbbe8	-0.17161524
215	0x3e50f2fe	0.20405194

conv3.bias f4 [12]
0	0x340b9ed3	1.3003164e-07
1	0x384d9205	4.90118e-05
2	0x375fa8a1	1.3331098e-05
3	0x37c048df	2.2922117e-05
4	0x3712f1ea	8.758603e-06
5	0x3850ea1e	4.9809103e-05
6	0xb6f8de2b	-7.4168397e-06
7	0xb74f1b36	-1.2344497e-05
8	0x36fff44f	7.6280335e-06
9	0xb6dd6449	-6.597988e-06
10	0x36d43422	6.3241614e-06
11	0x39098db0	0.00013118121

bn3.weight f4 [12]
0	0x3fbae67e	1.4601591
1	0x3fa41944	1.282021
2	0x3f8c7560	1.097332
3	0x3ecd6eb1	0.40123513
4	0x3f72fb74	0.94914937
5	0x3f84a2e5	1.0362211
6	0x3fb38b6e	1.4026926
7	0x3ed08e86	0.40733737
8	0x3f40213c	0.7505071
9	0x3f9c23f0	1.2198467
10	0x3eaab12b	0.33338293
11	0x4001ca14	2.0279589

bn3.bias f4 [12]
0	0xbdc296a1	-0.095013864
1	0xbe91aaf0	-0.28450727
2	0x3e2beab7	0.16788755
3	0xbcf4affe	-0.029869076
4	0x3e24cf2f	0.1609466
5	0xbeb0e186	-0.3454706
6	0xbee7ca9f	-0.45271775
7	0x3d799c57	0.060940113
8	0xbe186e9b	-0.14885943
9	0xbf0d01fd	-0.5508116
10	0x3f8d3d2c	1.1034293
11	0xbf09bc64	-0.53803086

bn3.running_mean f4 [12]
0	0xbf2fbbbd	-0.6864584
1	0xbf5334de	-0.82502544
2	0xbfc05493	-1.502581
3	0x3eb419d1	0.35175946
4	0xbe4a8e27	-0.1978079
5	0xbeab7592	-0.33488137
6	0xbfd5ecd6	-1.6712902
7	0xbf4b613d	-0.7944525
8	0xbf713b54	-0.9423115
9	0xbf2b04a7	-0.66803974
10	0xbe081a7d	-0.13291354
11	0xc00082a5	-2.007974

bn3.running_var f4 [12]
0	0x40a15ffb	5.0429664
1	0x40a0a668	5.0203133
2	0x4067086b	3.6098888
3	0x400abf15	2.1679127
4	0x40ce0e6c	6.4392605
5	0x3f82645d	1.0186878
6	0x409eb702	4.95984
7	0x3f78aff0	0.9714346
8	0x40284a8d	2.6295502
9	0x402029e3	2.5025566
10	0x3fbe0659	1.4845687
11	0x410035dd	8.01315

conv4.weight f4 [12, 12, 1, 3]
0	0x3d04a5f6	0.032384835
1	0xbed4ee38	-0.41587996
2	0xbea7087b	-0.32623658
3	0xbe625827	-0.2210394
4	0xbd40973d	-0.047019232
5	0xbe30eabe	-0.17277047
6	0x3cb9904a	0.02265181
7	0x3f651c4f	0.8949632
8	0xbe997ddb	-0.29978833
9	0x3e5c65a9	0.21523155
10	0xbd2e89aa	-0.042611755
11	0xbd992d98	-0.074793994
12	0x3f097faf	0.53710455
13	0x3e55b26d	0.20868845
14	0xbe0370d8	-0.12836015
15	0x3d818d94	0.06325832
16	0xbef034c8	-0.4691527
17	0x3d12f288	0.035875827
18	0xbe1609b7	-0.14652143
19	0xbf09624a	-0.536656
20	0x3e58d4fe	0.21175
21	0xbeefce25	-0.46836963
22	0xbe561771	-0.2090738
23	0xbe210afb	-0.15726845
24	0xbd4b96f0	-0.049704492
25	0x3e88ddd8	0.26731753
26	0x3e91c789	0.28472546
27	0xbec31118	-0.3809898
28	0xbd4915c6	-0.04909303
29	0xbe264c09	-0.16239943
30	0xbe79ff74	-0.24413854
31	0xbde6ffe0	-0.11279273
32	0x3e812716	0.25225133
33	0x3f4e1291	0.8049708
34	0x3eed5d1d	0.46360102
35	0xbfa2c1a1	-1.2715341
36	0xbec8c87d	-0.3921546
37	0x3ddd4e7b	0.108059846
38	0x3f6986a3	0.91221064
39	0xbca1e977	-0.019764645
40	0x3e847522	0.25870615
41	0xbe6d81c1	-0.23194028
42	0xbf13e401	-0.5776978
43	0x3f18926e	0.59598434
44	0x3e368a3c	0.1782617
45	0xbb10891a	-0.0022054375
46	0x3e2c93ff	0.16853331
47	0xbed2bc1a	-0.41159135
48	0x3d307645	0.04308154
49	0xbf2634c0	-0.6492424
50	0xbddcf92b	-0.107897125
51	0xbe8125e2	-0.25224215
52	0xbe3ca2c4	-0.18421465
53	0x3e0209c3	0.12699036
54	0x3f0654ab	0.52472943
55	0xbf6d5c10	-0.927186
56	0xbf775791	-0.9661799
57	0x3e95058e	0.291058
58	0xbe07a010	-0.13244653
59	0x3d8faa0c	0.07014856
60	0x3ea1b030	0.31579733
61	0x3f1e290a	0.6178137
62	0xbe865aed	-0.26241246
63	0xbecf1a9c	-0.4044999
64	0xbf039c58	-0.51410437
65	0x3e931f98	0.28735042
66	0x3f1d85b9	0.6153217
67	0xbe27785a	-0.16354504
68	0x3ce50adc	0.02795928
69	0xbf0e572c	-0.55601764
70	0x3e8cc924	0.27497208
71	0xbd433428	-0.047657162
72	0x3e8ae309	0.2712634
73	0xbe37bde0	-0.17943525
74	0xbe27676b	-0.16348045
75	0xbe35c963	-0.17752604
76	0xbe85221b	-0.26002583
77	0xbf61c607	-0.8819279
78	0xbebb093d	-0.36530486
79	0x3f240260	0.64066124
80	0x3e392613	0.1808093
81	0xbeb03ee4	-0.34422982
82	0x3db68ca8	0.08913547
83	0x3e176c92	0.1478751
84	0x3d943015	0.072357334
85	0x3dfbbb8a	0.122916296
86	0xbe4b2930	-0.1983993
87	0x3deb1074	0.114777476
88	0x3e130940	0.14358997
89	0x3cc04ba0	0.02347356
90	0xbed67ddf	-0.41892907
91	0xbe489bfb	-0.19590752
92	0xbddd775b	-0.10813781
93	0xbe7b7d7c	-0.24559587
94	0xbcb9259d	-0.022600943
95	0xbe99a982	-0.30012137
96	0x3e1d6c71	0.15373398
97	0x3dffe6fe	0.1249523
98	0xbd6c0130	-0.05761832
99	0x3f09fcb0	0.53901196
100	0xbd14abbf	-0.036296602
101	0xbdc2afb0	-0.09506166
102	0x3e7afe0f	0.24510978
103	0x3d264bf2	0.04059977
104	0x3e93b81d	0.28851405
105	0xbe929c36	-0.28634804
106	0x3fa55a8b	1.2918257
107	0x3dbdb7a4	0.09263542
108	0x3f11f375	0.5701211
109	0x3ec208e4	0.37897408
110	0xbeaaafd0	-0.3333726
111	0xbe391de2	-0.18077806
112	0xbf2eeccf	-0.6833009
113	0xbe92217d	-0.28541175
114	0x3dd1db35	0.102468885
115	0x3e78c0db	0.24292319
116	0xbd4e9d45	-0.050442953
117	0xbde85209	-0.11343772
118	0xbe393163	-0.18085246
119	0xbe84203b	-0.2580584
120	0x3dbeae10	0.093105435
121	0x3f0f0fba	0.5588337
122	0xbea1a96e	-0.31574577
123	0x3e2edd4e	0.17076609
124	0x3d59daf3	0.053187322
125	0x3d9e3f10	0.07726872
126	0x3e819007	0.25305197
127	0xbf381763	-0.71910685
128	0x3ea33fcd	0.31884614
129	0xbdf7cecc	-0.1209999
130	0xbddfcbed	-0.10927568
131	0x3dccc1e8	0.09997922
132	0x3d3fb07e	0.046799175
133	0x3e965e89	0.29369
134	0x3e2661dc	0.16248268
135	0x3f0cdbe0	0.55023
136	0x3f8b8d53	1.0902504
137	0xbe9201cc	-0.28516996
138	0xbe3b1f58	-0.18273675
139	0xbe0ba903	-0.13638692
140	0x3f2bb917	0.670793
141	0x3b423141	0.0029631408
142	0xbe927642	-0.2860585
143	0xbf39beae	-0.7255658
144	0xbe8115e9	-0.2521203
145	0xbeb5c741	-0.3550358
146	0xbd660cd9	-0.056164596
147	0x3ea6cb21	0.3257685
148	0x3ecb5bc2	0.39718443
149	0x3f3486d7	0.7051825
150	0xbee0dd9d	-0.43919078
151	0xbe75ca0a	-0.24002853
152	0xbcce792f	-0.02520427
153	0xbe97a5c9	-0.29618672
154	0xbeb0ac0a	-0.34506255
155	0xbec9f90c	-0.3944782
156	0xbe22011a	-0.15820733
157	0x3f781907	0.9691319
158	0x3e87545f	0.26431558
159	0xbea239e9	-0.31684807
160	0xbf032d14	-0.5124066
161	0xbee7eb34	-0.45296633
162	0x3ed7c1f1	0.42140153
163	0x3deaf525	0.11472539
164	0xbed4decb	-0.41576228
165	0x3dff9a92	0.12480654
166	0x3e24fccd	0.16112061
167	0x3c390b2a	0.011294166
168	0x3ed62d67	0.41831514
169	0xbf13ecc0	-0.57783127
170	0xbee6f9ac	-0.4511236
171	0x3e52d9f4	0.20590955
172	0xbd90c4ba	-0.070687726
173	0x3ebd6b18	0.3699577
174	0xbcf9ca34	-0.030491926
175	0x3bfe15e9	0.0077540767
176	0x3d48692a	0.048928417
177	0xbe713de7	-0.2355877
178	0xbef4a030	-0.47778463
179	0x3eab0e34	0.33409274
180	0xbe90d4f6	-0.28287476
181	0xbf96634e	-1.1749055
182	0x3e3e6a8a	0.18595329
183	0x3ec62fc6	0.38708323
184	0x3db2f026	0.08737211
185	0xbf3aadc9	-0.72921425
186	0xbdffd12f	-0.124910705
187	0xbef6e960	-0.48224926
188	0xbe74c687	-0.23903857
189	0x3ded5bb9	0.1158976
190	0xbe95bfda	-0.29247934
191	0xbf074f60	-0.5285549
192	0xbeeee2b0	-0.46657324
193	0x3d523775	0.05132242
194	0xbdfc4ca6	-0.12319307
195	0xbe4925ee	-0.19643375
196	0x3e897f83	0.26855096
197	0x3ec7ecd4	0.39047873
198	0xbee62081	-0.44946674
199	0x3e85eac5	0.26155677
200	0x3f9a4496	1.2052181
201	0x3e03f2eb	0.12885635
202	0x3e3eeb0a	0.18644348
203	0xbeaccde2	-0.33750826
204	0x3e404c95	0.18779214
205	0x3dcd4461	0.10022808
206	0xbec439b9	-0.3832529
207	0x3d723b64	0.05913867
208	0xbb907c2b	-0.004409333
209	0x3f11d866	0.5697082
210	0xbdee2b05	-0.11629299
211	0xbe56d4f0	-0.20979667
212	0xbe08f017	-0.13372837
213	0x3e983429	0.29727295
214	0xbe8496db	-0.25896344
215	0xbe6dd7b4	-0.23226815
216	0x3e080b58	0.13285577
217	0x3d4acf4f	0.04951411
218	0x3ea3e400	0.32009888
219	0xbdd09f21	-0.101866014
220	0xbde9afa0	-0.11410451
221	0xbe93212b	-0.28736243
222	0x3e2e3689	0.17012991
223	0x3ea2a81f	0.3176889
224	0x3f551af4	0.8324425
225	0x3f014cc8	0.50507784
226	0xbe749161	-0.23883583
227	0x3e9071f1	0.2821193
228	0xbdfae744	-0.12251142
229	0xbebe4cd9	-0.37168005
230	0x3f0b7169	0.54469925
231	0x3dee77fd	0.1164398
232	0x3db5ce43	0.08877232
233	0x3e0fd8c8	0.14047539
234	0x3f30463b	0.68857163
235	0x3da4cbcd	0.080466844
236	0xba163801	-0.0005730391
237	0xbd447c4d	-0.047970105
238	0xbf0bf0be	-0.5466422
239	0x3eb8d1a1	0.36097434
240	0xbf13c92e	-0.5772885
241	0x3ec2b98a	0.3803218
242	0xbeda56c1	-0.42644313
243	0xbe3641a1	-0.17798473
244	0x3ebad792	0.36492592
245	0x3c3e1d45	0.011603658
246	0xbcff5dcb	-0.031172654
247	0x3e87244a	0.26394874
248	0xbf42d882	-0.76111615
249	0x3e6af28c	0.22944087
250	0xbf79c831	-0.9757109
251	0xbe70b492	-0.23506382
252	0xbdb5f7a2	-0.08885123
253	0xbe9e5735	-0.3092591
254	0xbe2ca073	-0.16858082
255	0xbd9b7cfb	-0.075921975

conv4.bias f4 [12]
0	0x37b019a2	2.0992771e-05
1	0xb716dc1f	-8.991948e-06
2	0xb8369a3a	-4.3535816e-05
3	0x37528878	1.25487495e-05
4	0x37afd6ec	2.0961706e-05
5	0x36b533b1	5.400238e-06
6	0x3721ec94	9.65143e-06
7	0xb732b4df	-1.0651739e-05
8	0x37cd6846	2.448646e-05
9	0x37e03d8a	2.6731537e-05
10	0x379fe248	1.9059647e-05
11	0xb882e93f	-6.2423285e-05

bn4.weight f4 [12]
0	0x403f153b	2.9856708
1	0x403aed50	2.9207344
2	0x403ef554	2.9837236
3	0x4030452d	2.7542222
4	0x4032d362	2.7941518
5	0x402cb237	2.6983774
6	0x4020b524	2.511056
7	0x40425957	3.0367029
8	0x403898dc	2.8843298
9	0x4031a6d9	2.7758086
10	0x403ca9af	2.9478567
11	0x402fbcf5	2.745908

bn4.bias f4 [12]
0	0xbf1b7755	-0.6072896
1	0xbfba1cb7	-1.4540013
2	0xbf0be34a	-0.5464369
3	0xbe957c3c	-0.29196346
4	0x3ea70e33	0.3262802
5	0xbda5c567	-0.08094292
6	0x3f0430dc	0.51637053
7	0x3f0f99bb	0.5609395
8	0xbf228418	-0.6348281
9	0xbef492fb	-0.47768387
10	0xbf81ee6e	-1.0150888
11	0xbe53b145	-0.20673092

bn4.running_mean f4 [12]
0	0xbe622466	-0.22084197
1	0x3ed8e072	0.42358738
2	0x3f4fced6	0.8117498
3	0x3f3830a3	0.71949214
4	0xbea305aa	-0.3184026
5	0xbfd4a989	-1.6614238
6	0x3d5c6679	0.053808663
7	0xbfa5a4bc	-1.2940898
8	0x3f87c1b9	1.0605994
9	0x3f54ca7e	0.8312148
10	0xbf6e68fa	-0.9312893
11	0x3f4f6fc2	0.81029904

bn4.running_var f4 [12]
0	0x3f048f7a	0.5178143
1	0x3ead3d0a	0.33835632
2	0x3e9f5956	0.31122845
3	0x3edc40ca	0.4301818
4	0x3ec59131	0.38587335
5	0x3ee72065	0.45141903
6	0x3e85fa74	0.26167643
7	0x3f16ec1b	0.5895402
8	0x3f02ca09	0.5108953
9	0x3f2bca1a	0.6710526
10	0x3ebee78a	0.37286025
11	0x3ec94733	0.39312133

fc1.weight f4 [9, 12]
0	0xc0045c37	-2.0681283
1	0xc00878d6	-2.1323752
2	0xbffd0bb6	-1.9769199
3	0xbfcc94c2	-1.5982897
4	0xbe6e65a9	-0.23280968
5	0x3e525fad	0.2054431
6	0xbf52d927	-0.823626
7	0x3fc9eff0	1.5776348
8	0xbda6f879	-0.08152861
9	0xbf2f1d96	-0.6840452
10	0x3ea8f499	0.32999113
11	0xc0150449	-2.3283865
12	0x3f3ae81f	0.7301044
13	0xbf719487	-0.9436726
14	0x3f608842	0.8770791
15	0xbeea988c	-0.4581951
16	0xbf9ec9f5	-1.2405382
17	0x3eb7ac03	0.35873422
18	0xbfa3155a	-1.2740891
19	0x3edef08a	0.43542892
20	0xbf592ca9	-0.8483377
21	0x3fcf0176	1.6172321
22	0xbee03e16	-0.43797368
23	0x3f0cd401	0.5501099
24	0x3d15add8	0.036542743
25	0xbea862f2	-0.3288799
26	0x3f49d6ed	0.78843576
27	0xbfe39185	-1.7778784
28	0x3f531752	0.8245746
29	0xbfa385a7	-1.2775162
30	0xbeafd84d	-0.34344712
31	0xbe299bbd	-0.16563316
32	0x3fc424ef	1.5323771
33	0xbc8c8d09	-0.017157095
34	0x3fb6b5cc	1.427423
35	0xbf55348f	-0.83283323
36	0xc0015b0c	-2.021182
37	0xbec51a0a	-0.3849643
38	0xbff70753	-1.929911
39	0x3f0a2c7b	0.5397412
40	0x3e38cf87	0.18047915
41	0x3edbf9d1	0.42964032
42	0xbea37056	-0.31921643
43	0xbdf7bbf0	-0.12096393
44	0x3f5c2249	0.85989815
45	0x3f2a006a	0.6640688
46	0xbf496083	-0.7866289
47	0x3f4f4881	0.8097001
48	0xbf8830af	-1.0639857
49	0xbe50e1db	-0.20398657
50	0x3e96d9bd	0.29462996
51	0x3f9b1646	1.2116172
52	0x3f943448	1.1578455
53	0xbf4ce131	-0.80031115
54	0xbf8aca05	-1.0842901
55	0x3e138c85	0.14409073
56	0xbf170afe	-0.5900115
57	0x3f70dc1c	0.9408586
58	0x3f8f51ee	1.1196878
59	0xbf573815	-0.8406995
60	0x3f3bc793	0.733514
61	0xbf24b9de	-0.6434611
62	0x3f3e4880	0.74329376
63	0xbf29d6ce	-0.6634339
64	0xbf941df5	-1.1571642
65	0x3f7c753b	0.9861638
66	0x3e86229e	0.26198286
67	0x3ebdd513	0.37076625
68	0x3f0c8662	0.5489255
69	0xbf2edc3c	-0.683048
70	0xbf84428b	-1.0332807
71	0xbdde9697	-0.108685665
72	0xbe74af11	-0.23894908
73	0x401030b9	2.2529738
74	0x3edcc043	0.43115434
75	0x3d9c5320	0.07633042
76	0xbf85a806	-1.0441902
77	0xbf88d664	-1.0690427
78	0x3f85ac8d	1.0443283
79	0x3e7a625e	0.24451587
80	0xbda3f9e2	-0.08006646
81	0xbf0843db	-0.5322854
82	0x3e90aee4	0.2825843
83	0xbf697a1f	-0.91201967
84	0x3d650cd6	0.055920444
85	0xbd63cd95	-0.05561598
86	0xbfb07962	-1.3787043
87	0x3f1b2a09	0.60611016
88	0x3f3ff779	0.7498699
89	0xbe9d9b37	-0.30782482
90	0x3f50d8c6	0.8158077
91	0xbd57fb83	-0.052730095
92	0xbf7724f3	-0.96540755
93	0xbf04d411	-0.5188609
94	0xbf9e0980	-1.2346649
95	0x3dfad79d	0.12248156
96	0x3eb34ca1	0.350194
97	0x3db9ada6	0.09066324
98	0xbec1b8ac	-0.37836206
99	0x3f13151a	0.57454073
100	0xbe2bc739	-0.16775216
101	0x3f91351e	1.1344335
102	0x3effad75	0.49937025
103	0xc004a34b	-2.0724666
104	0xbf8980f9	-1.0742484
105	0xbf5b333d	-0.8562506
106	0xbe9a0a47	-0.30085966
107	0x3fa16b01	1.261078

fc1.bias f4 [9]
0	0x3fb0c655	1.3810526
1	0xbe638c1b	-0.22221415
2	0x3e2e0f64	0.16998059
3	0x3ef570e6	0.47937697
4	0xbe1b0bc0	-0.15141201
5	0xbebbe2cc	-0.3669647
6	0x3d5c490d	0.053780604
7	0xbf12ff26	-0.57420576
8	0x3ecd46d4	0.400931
